weights/checkpoint_actor.pth (torch, 29087 bytes, 4 tensors)

fc1.weight f4 [256, 24]
-0.21242192 -0.11859544 -0.06052223 -0.22417958 0.22604713 -0.33905986 -0.027725484 -0.11530234
-0.12734455 -0.119414814 -0.008753192 -0.06222869 0.13852438 -0.27180955 -0.099593505 -0.05650343
-0.12791215 -0.11674423 -0.008530457 -0.15767863 0.11552883 -0.32085392 -0.0845062 -0.17033996
0.0029105719 -0.1679637 0.015714547 0.122180216 -0.05399288 0.020670593 -0.032763872 0.1150473
0.06282447 -0.15541951 0.113925874 -0.0956913 0.076824374 0.0689346 0.0335418 -0.12069001
-0.042460714 -0.1886156 -0.06622592 0.03246063 0.007703903 0.3041034 -0.08895953 -0.06301843
0.14495136 -0.0005519705 -0.06160159 0.113596715 0.043278623 -0.057846885 -0.050775312 0.10826475
0.0547764 -0.051882792 0.02484803 0.18601568 -0.25166434 -0.14545915 -0.055301867 0.106176965
0.017702423 -0.1298377 0.073333584 0.002935721 -0.368109 -0.057652913 0.053685833 -0.03358048
0.09759713 0.23385331 0.008390562 -0.18591934 0.07557305 -0.5222258 0.017201373 -0.20079851
0.10999314 0.14625995 0.015362116 -0.19645864 0.15431681 -0.5371716 -0.07412303 -0.18827198
0.10120958 -0.014392295 0.049279906 -0.18106826 0.25409642 -0.08775992 0.09020251 -0.13145185
0.3543295 -0.4435979 0.0035851605 -0.12682581 -0.08775295 0.003674333 0.032402534 -0.08380282
0.37919414 -0.37599605 -0.025987145 -0.1681323 -0.1533812 -0.1823604 -0.016758775 -0.09264791
0.2681131 -0.5157885 0.042024724 0.043805968 -0.26673302 0.14051293 -0.0021768287 -0.026197022
0.020381998 0.033997487 -0.04124145 -0.061843008 0.081571676 -0.078607894 -0.09075925 -0.012160507
0.015929596 -0.05602379 0.08536245 0.05440939 -0.031730764 -0.05134892 0.089129366 -0.024228588
-0.07353403 -0.1746288 -0.04672636 0.10678099 -0.13476981 0.08625245 -0.052430667 0.14947794
0.02790628 0.20376822 0.06411886 -0.043528743 0.34699833 -0.12425613 0.06988929 0.020984862
-0.07332078 0.062299863 0.06939805 0.0766165 0.05115582 -0.06128457 0.0697135 0.02897588
-0.1355366 0.08894062 -0.06700662 -0.2224424 -0.17121527 -0.09904296 -0.024109986 -0.26710886
0.34043223 -0.23658472 0.04900863 0.08780149 0.053386036 -0.49342245 -0.010243866 0.1207847
0.18117759 -0.14809309 0.011144135 0.1672892 0.092817 -0.55507433 0.05726867 0.14908908
0.17488597 -0.19219433 -0.081324935 0.22328097 0.10636973 -0.6280818 -0.019017171 0.19787344
-0.0328665 -0.08569064 -0.04524631 -0.014275529 0.1705291 0.059995625 0.022642918 -0.036764577
-0.03549496 -0.11010603 0.09485312 -0.15397131 0.03408414 0.010217503 0.055267673 -0.09086242
-0.068484016 -0.17401509 -0.045456946 0.09920288 -0.07991835 0.012743703 -0.008645058 0.109951936
-0.13801454 -0.02103126 0.006102563 -0.118953176 0.09051408 0.07217263 -0.075288475 -0.052029736
-0.13540053 -0.06142665 -0.15756105 0.012419757 0.033795297 0.09414307 -0.11509274 -0.025058001
-0.10597842 -0.16147433 -0.016722023 0.012249317 -0.15809447 0.10255587 -0.10756197 0.069345035
0.12227649 0.08403777 0.09779739 0.040175714 0.06618764 -0.0019596645 0.13652618 0.027132772
0.053249963 -0.046038922 0.05887906 0.19858088 -0.06765704 -0.019649113 0.011017798 0.10587644
00000000: 2285 59be 2be2 f2bd 28e6 77bd 558f 65be
00000010: e678 673e 4199 adbe 8e20 e3bc a223 ecbd
00000020: 9c66 02be c18f f4bd 8c69 0fbc 83e3 7ebd
00000030: 56d9 0d3e 9f2a 8bbe aef7 cbbd 2470 67bd
00000040: 67fb 02be 9917 efbd 54c3 0bbc 8276 21be
00000050: 619a ec3d f746 a4be 9611 adbd 996d 2ebe
00000060: 4bbf 3e3b adfe 2bbe cbbb 803c 9f39 fa3d
00000070: a327 5dbd 6055 a93c 6933 06bd eb9d eb3d
00000080: 1eaa 803d 4b26 1fbe f851 e93d cdf9 c3bd
00000090: 1956 9d3d 952d 8d3d 2063 093d 532c f7bd
000000a0: 49eb 2dbd 7324 41be 75a1 87bd 70f5 043d
000000b0: 0671 fc3b 71b3 9b3e 6a30 b6bd ce0f 81bd
000000c0: 216e 143e 1db2 10ba f351 7cbd 65a5 e83d
000000d0: ed44 313d dbf0 6cbd c6f9 4fbd e9b9 dd3d
000000e0: 385d 603d 0d83 54bd 198e cb3c e57a 3e3e
000000f0: 26da 80be 3ef3 14be 3684 62bd 4f73 d93d
00000100: ac04 913c 2df4 04be eb2f 963d 3a65 403b
00000110: c878 bcbe 7625 6cbd ade5 5b3d af8b 09bd
00000120: 01e1 c73d 3e77 6f3e 9178 093c a461 3ebe
00000130: 0bc6 9a3d 97b0 05bf e5e9 8c3c 209e 4dbe
00000140: 1544 e13d 2bc5 153e 62b1 7b3c 742c 49be
00000150: 3a05 1e3e 1484 09bf d1cd 97bd 5fca 40be
00000160: f846 cf3d a9cd 6bbc bad9 493d f569 39be
00000170: ed18 823e 79bb b3bd 18bc b83d 509b 06be
00000180: ad6a b53e 441f e3be 03f5 6a3b a0de 01be
00000190: d2b7 b3bd 14cd 703b 85b8 043d d0a0 abbd
000001a0: bc25 c23e 8e82 c0be fee2 d4bc e02a 2cbe
000001b0: f60f 1dbe afbc 3abe b349 89bc 30be bdbd
000001c0: 1f46 893e b70a 04bf 1e22 2c3d e36d 333d
000001d0: 3b91 88be 9fe2 0f3e 20a9 0ebb 239b d6bc
000001e0: 26f8 a63c f340 0b3d cbec 28bd 184f 7dbd
000001f0: 0d0f a73d 2dfd a0bd fcdf b9bd dd3c 47bc
00000200: c97e 823c 3479 65bd 82d2 ae3d 61dc 5e3d
00000210: 1ef8 01bd 3f53 52bd 7589 b63d 087b c6bc
00000220: 0299 96bd e4d1 32be 2464 3fbd feaf da3d
00000230: 1901 0abe 20a5 b03d 8ac1 56bd bf10 193e
00000240: b69b e43c 9ea8 503e c050 833d 324b 32bd
00000250: c4a9 b13e ff79 febd 1e22 8f3d 72e8 ab3c
00000260: 3529 96bd 242e 7f3d 9120 8e3d 1de9 9c3d
00000270: c488 513d 8705 7bbd f4c5 8e3d d35e ed3c
00000280: 1bca 0abe 8026 b63d c43a 89bd f1c7 63be
00000290: 0e53 2fbe 09d7 cabd 4e82 c5bc 7ec2 88be
000002a0: 224d ae3e 4443 72be 46bd 483d 45d1 b33d
000002b0: 51ab 5a3d dea1 fcbe e3d5 27bc f85d f73d
000002c0: 9e86 393e b7a5 17be e495 363c dc4d 2b3e
000002d0: d716 be3d 5a19 0ebf 8e92 6a3d cfaa 183e
000002e0: 4f15 333e 97ce 44be b08d a6bd c4a3 643e
000002f0: 5fd8 d93d f8c9 20bf e6c9 9bbc 569f 4a3e
00000300: 069f 06bd 937e afbd 3254 39bd e9e3 69bc
00000310: 2e9f 2e3e f9bd 753d a47d b93c 7496 16bd
00000320: 2a63 11bd 457f e1bd 5a42 c23d a8aa 1dbe
00000330: d09b 0b3d 5067 273c 5b60 623d 1416 babd
00000340: 5941 8cbd 0331 32be 1031 3abd e12a cb3d
00000350: 3bac a3bd f7ca 503c 00a4 0dbc 7b2e e13d
00000360: af53 0dbe c049 acbc 02f8 c73b b99d f3bd
00000370: 725f b93d 3ecf 933d d830 9abd 221d 55bd
00000380: 70a6 0abe 839a 7bbd af57 21be 3d7c 4b3c
00000390: f06c 0a3d 15ce c03d beb5 ebbd 7046 cdbc
000003a0: 370b d9bd 8759 25be a0fc 88bc 5cb1 483c
000003b0: 84e3 21be d008 d23d 7349 dcbd c504 8e3d
000003c0: 196c fa3d ff1b ac3d ff49 c83d 4a8f 243d
000003d0: 638d 873d b76d 00bb 85cd 0b3e 8c45 de3c
000003e0: a21c 5a3d 4f93 3cbd 2b2b 713d c958 4b3e
000003f0: c68f 8abd 2df7 a0bc ff83 343c bfd5 d83d

fc1.bias f4 [256]
-0.07611005 -0.21781489 0.22347018 -0.09528338 0.06772813 -0.075795464 0.15654868 -0.4470474
0.06826579 0.09191298 0.077094726 -0.12574676 -0.14241625 -0.2082745 0.28213748 -0.082263984
0.08133163 0.22969821 0.001543133 0.019398874 -0.10746843 -0.08337237 0.17037234 0.23062398
-0.21928468 -0.023337014 0.21980391 -0.005261388 -0.075177684 -0.02098756 -0.4435077 0.12449307
0.32463542 -0.021854449 0.088561855 -0.14291374 -0.039237525 -0.047204487 0.13623857 -0.02413223
0.1776676 -0.20803668 0.3066813 0.1682364 -0.0111293 -0.1389857 -0.13428897 0.059191164
-0.004021239 0.10949485 0.39222848 -0.10964959 -0.061883148 0.25569147 -0.06251408 -0.13909073
-0.23321924 -0.34978372 0.0754715 0.45338148 -0.008638904 0.28389055 0.03348388 -0.122743316
0.28288868 0.010961392 0.23885539 0.20326948 0.18654682 0.39349097 -0.19670203 0.15913533
-0.11190223 -0.1826967 0.049236592 0.09828494 -0.19809039 -0.0770973 0.041949697 0.18378106
-0.013784751 -0.2926667 -0.2280354 -0.0775081 0.096841075 0.27239656 0.28140324 0.030199867
-0.028397651 0.030559823 0.16561311 -0.32537135 0.10599702 0.13863648 -0.092647105 0.31567594
-0.038883433 -0.24648961 -0.44802997 -0.19686997 0.07842257 -0.050312404 0.12911473 0.20192555
-0.02208263 0.024624819 0.0535876 0.07389725 0.08429111 -0.11912246 -0.26150048 -0.033738885
-0.34380603 -0.20350942 -0.35019916 0.34319237 -0.17933652 0.1611786 -0.1942269 0.16334487
0.050134882 0.22383125 -0.05153841 -0.00263968 0.13059989 -0.08460488 -0.052129462 0.10453975
0.38115415 0.1705227 0.2307334 0.09459715 -0.13383631 0.028016936 -0.22569384 -0.16060609
0.1983997 0.22474511 -0.21375652 0.05685941 0.0027215255 0.13256215 0.07115734 0.31458208
0.163237 0.21103697 0.22152016 0.1061139 -0.01654772 0.28314397 0.26688364 0.13196541
-0.012284004 -0.07113499 0.07465457 -0.17055263 -0.038169112 0.15532304 -0.13040258 -0.113137476
-0.023769319 -0.034948457 0.14284922 0.1111397 0.057420522 -0.04967588 0.02494442 0.26274794
-0.1107282 0.2753702 -0.02284373 -0.09012985 -0.072094865 -0.04368793 0.20106198 -0.11363291
0.1543614 0.054526165 0.023037365 0.24913216 -0.13542451 0.105557665 0.32112128 0.015150789
-0.42511705 0.012074093 -0.14154924 -0.16336142 0.25909346 0.06558063 -0.011260321 -0.4563533
-0.04970123 0.0050712735 0.23774438 -0.3342393 -0.0334967 -0.37203234 0.0055910004 -0.11691717
0.1203615 -0.055765305 -0.17260236 -0.46215272 -0.15633948 -0.17867781 0.016903186 0.20440286
-0.19538379 0.051516183 0.07945429 0.18205969 0.13048798 -0.06634138 -0.21077561 0.038776122
0.08696376 0.40126628 -0.01752903 -0.10014963 0.15649231 0.18209763 -0.02010811 0.03991266
-0.36904153 -0.040755484 -0.0434791 -0.09967541 0.06674357 0.14083648 0.2676952 -0.28282765
0.06284126 0.2601662 -0.33774206 -0.1915458 0.18699628 -0.041717637 -0.06087331 0.19925074
0.14233044 -0.1300998 -0.08179884 0.07043497 0.012947462 0.045299113 0.18925035 0.21040224
0.2010976 0.13076438 0.20196705 -0.27823296 0.11755261 0.22187409 -0.004809286 0.27895585
00000000: 96df 9bbd de0a 5fbe 5ed5 643e ef23 c3bd
00000010: 0cb5 8a3d a73a 9bbd 4c4e 203e 66e3 e4be
00000020: efce 8b3d df3c bc3d d7e3 9d3d c2c3 00be
00000030: 91d5 11be e945 55be 5374 903e 057a a8bd
00000040: 3391 a63d 0236 6b3e f442 ca3a 63ea 9e3c
00000050: 6918 dcbd 22bf aabd 1676 2e3e b128 6c3e
00000060: 2a8c 60be 442d bfbc 4714 613e b967 acbb
00000070: c2f6 99bd 1aee abbc 7113 e3be 39f6 fe3d
00000080: 9d36 a63e 1a08 b3bc eb5f b53d fb57 12be
00000090: 87b7 20bd 7e59 41bd 2082 0b3e f4b0 c5bc
000000a0: 7fee 353e 9107 55be 5505 9d3e 2a46 2c3e
000000b0: ab57 36bc 4452 0ebe 0c83 09be 6f72 723d
000000c0: 99c4 83bb d63e e03d 2cd2 c83e f78f e0bd
000000d0: 2f79 7dbd fee9 823e 6207 80bd cd6d 0ebe
000000e0: 06d1 6ebe da16 b3be cd90 9a3d 9e21 e83e
000000f0: 318a 0dbc 1a5a 913e 6526 093d d960 fbbd
00000100: c9d6 903e 6997 333c 8296 743e e025 503e
00000110: 2106 3f3e a677 c93e 426c 49be 5ff4 223e
00000120: ff2c e5bd d814 3bbe 4fac 493d 9d49 c93d
00000130: 35d8 4abe 30e5 9dbd 72d3 2b3d 1a31 3c3e
00000140: 70d9 61bc 69d8 95be 1d82 69be 91bc 9ebd
00000150: 9d54 c63d 9077 8b3e 1614 903e b665 f73c
00000160: 31a2 e8bc 9858 fa3c 7c96 293e 1397 a6be
00000170: f714 d93d b9f6 0d3e c4bd bdbd 47a0 a13e
00000180: 3c44 1fbd c667 7cbe 2f64 e5be 4898 49be
00000190: 039c a03d 6114 4ebd a736 043e 92c5 4e3e
000001a0: a2e6 b4bc fdb9 c93c ac7e 5b3d 7157 973d
000001b0: d1a0 ac3d 7af6 f3bd 64e3 85be c931 0abd
000001c0: 5807 b0be c664 50be 4e4d b3be e9b6 af3e
000001d0: fea3 37be 010c 253e 6be3 46be e143 273e
000001e0: 3c5a 4d3d 0534 653e f119 53bd 7bfe 2cbb
000001f0: fabb 053e 5345 adbd b485 55bd f018 d63d
00000200: a326 c33e 819d 2e3e 6045 6c3e 27bc c13d
00000210: 630c 09be c683 e53c 491c 67be ec75 24be
00000220: 4a29 4b3e 9523 663e fde2 5abe 6ae5 683d
00000230: 9f5b 323b 5fbe 073e f1ba 913d e710 a13e
00000240: 9a27 273e 131a 583e 2ed6 623e 3f52 d93d
00000250: 168f 87bc 3ff8 903e f9a4 883e f121 073e
00000260: d942 49bc 39af 91bd 7fe4 983d 59a5 2ebe
00000270: 3757 1cbd 010d 1f3e 4188 05be 9fb4 e7bd
00000280: e0b7 c2bc 1d26 0fbd 1147 123e 369d e33d
00000290: c831 6b3d f078 4bbd 3e58 cc3c e686 863e
000002a0: 77c5 e2bd 53fd 8c3e c622 bbbc 0096 b8bd
000002b0: 79a6 93bd 1df2 32bd 31e3 4d3e 5fb8 e8bd
000002c0: ea10 1e3e d456 5f3d dbb8 bc3c 801c 7f3e
000002d0: b9ac 0abe 9e2e d83d 026a a43e 043b 783c
000002e0: f1a8 d9be 6bd2 453c 49f2 10be 3748 27be
000002f0: e6a7 843e 234f 863d 367d 38bc 24a7 e9be
00000300: 8493 4bbd ed2c a63b 4373 733e 6a21 abbe
00000310: d633 09bd 067b bebe b634 b73b 4572 efbd
00000320: 1780 f63d 296a 64bd acbe 30be 489f ecbe
00000330: 7517 20be 51f7 36be 8d78 8a3c fc4e 513e
00000340: b012 48be a202 533d eeb8 a23d db6d 3a3e
00000350: a49e 053e fddd 87bd 90d5 57be b6d3 1e3d
00000360: 0e1a b23d c672 cd3e 0a99 8fbc 401b cdbd
00000370: 853f 203e cd77 3a3e c3b9 a4bc 757b 233d
00000380: 03f3 bcbe 39ef 26bd 2417 32bd 9f22 ccbd
00000390: dab0 883d 7037 103e 580f 893e c9ce 90be
000003a0: ebb2 803d 8134 853e 87ec acbe 9524 44be
000003b0: f47b 3f3e 1de0 2abd 4b56 79bd 6308 4c3e
000003c0: 12bf 113e e238 05be 2686 a7bd 3640 903d
000003d0: 9721 543c 908b 393d d8ca 413e af73 573e
000003e0: 87ec 4d3e 19e7 053e 73d0 4e3e 8d74 8ebe
000003f0: 6cbf f03d f632 633e 3797 9dbb 4dd3 8e3e

fc2.weight f4 [2, 256]
-0.3400173 0.1092924 -0.21574485 -0.307946 -0.33326676 -0.06012062 -0.084604286 -0.033881627
-0.05952845 -0.096151 -0.16902456 -0.3894211 -0.048299752 0.019596774 0.119289316 -0.11277588
-0.04143807 -0.042003892 -0.3296887 -0.16478394 0.025143165 0.52418786 -0.32749513 0.19985014
-0.031019848 -0.09680074 0.020376071 -0.06831398 -0.147051 0.09742866 0.5578926 -0.17859352
0.0008158614 0.13342825 -0.1117335 0.36139554 -0.11643339 -0.13403505 0.074257545 -0.051473863
0.14194602 0.1012139 -0.08989736 -0.07898647 -0.06993561 0.1128731 -0.47465694 -0.4398657
-0.15751933 -0.11937029 -0.08240043 -0.060241256 -0.10780177 0.14032523 0.081139676 0.17791362
0.18969554 0.122526385 -0.1442878 -0.0697156 -0.16535515 0.03800447 0.07582403 0.05743366
0.038467847 -0.14560683 -0.19147235 -0.0040250206 -0.10440903 -0.14349641 0.35476553 -0.08005531
-0.04000268 0.51776284 0.14437613 0.08358757 -0.2766958 -0.12504342 -0.11912829 0.1883814
-0.27902815 -0.15996668 0.2380542 0.10162325 0.07590682 0.13333678 -0.105567984 0.07822598
-0.17198808 -0.08056069 0.058119792 0.4184915 -0.08517304 -0.06788226 0.14323139 0.22442201
0.16295758 -0.069982864 0.34037647 0.0039473274 0.09303758 0.4502391 0.041112408 -0.081773326
0.3760484 0.020673297 -0.13273217 -0.16024147 0.019981783 -0.017115215 0.16529112 -0.031573996
-0.11664281 0.45863643 0.043166723 -0.07953106 0.16885886 -0.113221146 -0.54320186 -0.08407623
0.051915407 -0.09253234 0.01572907 -0.34761557 0.123573706 -0.06972438 0.4407564 0.17266385
-0.32179275 0.26434192 -0.14884007 0.36069402 -0.07991696 -0.08609921 -0.20533986 0.18779625
0.048538916 -0.031237569 0.23119628 -0.14389388 0.017387884 0.03069449 -0.5681003 -0.0525575
-0.0873483 -0.014863578 0.05610081 0.048074413 0.060316086 0.11257292 0.053624265 0.009370598
0.10405129 -0.14234336 0.07597246 0.26807895 0.070294224 -0.12205511 -0.046033245 0.030715078
-0.08462927 0.037224475 -0.10241266 -0.16735119 0.24769413 0.1784416 0.05395632 -0.098656274
0.08246338 0.030585947 -0.030011384 0.037773564 -0.012002763 -0.41818294 0.19868064 0.2802126
0.18490551 -0.00423133 0.15364261 0.010798991 0.15604424 0.118649706 -0.069976844 -0.121754915
0.41915596 0.06873262 -0.088630065 0.11877769 -0.00036432978 -0.15982398 -0.55440205 0.13468316
-0.13509165 -0.18941864 0.026218733 -0.21419515 -0.02832044 0.24271639 0.09249426 -0.2640941
0.06961305 -0.03306413 0.021575546 -0.11420159 -0.56755793 0.28375885 -0.07652615 -0.43586886
0.2606178 0.10621812 -0.06490711 -0.004694344 0.19458772 0.045594748 0.45890743 -0.03670501
-0.108021 0.3021666 -0.11960249 0.09532881 0.17979634 -0.11400452 -0.13550025 0.07266076
0.6019137 -0.07605189 -0.053893015 0.16079159 -0.04732247 -0.06713125 0.058879014 0.56556743
-0.07526801 0.052857086 0.17418174 -0.09833418 -0.15232292 -0.10973953 0.30731294 0.065085925
-0.1426077 -0.097053826 -0.1537317 -0.06185935 0.16681626 -0.012063456 0.009084514 -0.1369434
0.40726724 0.08627959 -0.091318175 -0.3349536 0.030445632 -0.14114004 0.42421636 0.016566878
00000000: bf16 aebe b2d4 df3d 38ec 5cbe 19ab 9dbe
00000010: f1a1 aabe 0a41 76bd 0345 adbd 76c7 0abd
00000020: 1bd4 73bd d1ea c4bd c614 2dbe 3462 c7be
00000030: f6d5 45bd 6a89 a03c f54d f43d 0af7 e6bd
00000040: f7ba 29bd 460c 2cbd f5cc a8be 1fbd 28be
00000050: 0af9 cd3c 2d31 063f 71ad a7be 84a5 4c3e
00000060: 561d febc 773f c6bd b8eb a63c 33e8 8bbd
00000070: 8a94 16be ad88 c73d 0dd2 0e3f 38e1 36be
00000080: 88df 553a 6aa1 083e 89d4 e4bd d608 b93e
00000090: a174 eebd 7c40 09be 5714 983d 42d6 52bd
000000a0: 4c5a 113e 3c49 cf3d 1b1c b8bd a9c3 a1bd
000000b0: 673a 8fbd 032a e73d 3c06 f3be 1436 e1be
000000c0: bf4c 21be 6978 f4bd 8fc1 a8bd 89bf 76bd
000000d0: 2dc7 dcbd 6bb1 0f3e 8f2c a63d fd2e 363e
000000e0: 8c3f 423e 1def fa3d 2ec0 13be 0dc7 8ebd
000000f0: dc52 29be 93aa 1b3d a149 9b3d 8f3f 6b3d
00000100: 7690 1d3d f519 15be 5411 44be 52e4 83bb
00000110: 67d4 d5bd b9f0 12be d4a3 b53e 0af4 a3bd
00000120: dad9 23bd 1b8c 043f 56d7 133e f62f ab3d
00000130: 12ab 8dbe 620b 00be 88f9 f3bd 0ee7 403e
00000140: c7dc 8ebe 4ece 23be 7bc4 733e da1f d03d
00000150: 0975 9b3d 7089 083e 0734 d8bd f134 a03d
00000160: a51d 30be 01fd a4bd 050f 6e3d 8544 d63e
00000170: 346f aebd db05 8bbd 40ab 123e e2ce 653e
00000180: 5ade 263e 2d53 8fbd d345 ae3e 9558 813b
00000190: 7d8a be3d bd85 e63e 7c65 283d c678 a7bd
000001a0: 6a89 c03e 0c5b a93c f1ea 07be 5716 24be
000001b0: d6b0 a33c 3535 8cbc 1342 293e bc53 01bd
000001c0: 6de2 eebd 65d2 ea3e 97cf 303d 2ee1 a2bd
000001d0: 56e9 2c3e 7de0 e7bd 470f 0bbf 2930 acbd
000001e0: 40a5 543d 9881 bdbd 40da 803c abfa b1be
000001f0: 3614 fd3d a8cb 8ebd d3aa e13e cbce 303e
00000200: 05c2 a4be d357 873e 8869 18be e3ac b83e
00000210: 81ab a3bd c854 b0bd 9d44 52be a94d 403e
00000220: bed0 463d eee5 ffbc b8be 6c3e eb58 13be
00000230: 0971 8e3c 0373 fb3c 056f 11bf 8846 57bd
00000240: aae3 b2bd 5d86 73bc f7c9 653d ade9 443d
00000250: 000e 773d a28c e63d 1ea5 5b3d 2387 193c
00000260: d818 d53d 75c2 11be 7397 9b3d a541 893e
00000270: 6bf6 8f3d 08f8 f9bd 5b8d 3cbd 309e fb3c
00000280: 1c52 adbd b178 183d bbbd d1bd 1c5e 2bbe
00000290: 88a3 7d3e 65b9 363e 4d01 5d3d 4d0c cabd
000002a0: 90e2 a83d 618f fa3c 6fda f5bc 74b8 1a3d
000002b0: 3da7 44bc 131c d6be f072 4b3e 0778 8f3e
000002c0: df57 3d3e f8a6 8abb 7d54 1d3e 40ee 303c
000002d0: 10ca 1f3e 9efe f23d 0550 8fbd a45a f9bd
000002e0: 9c9b d63e b0c3 8c3d ae83 b5bd b841 f33d
000002f0: 8403 bfb9 e6a8 23be 4bed 0dbf 62ea 093e
00000300: 7755 0abe f6f6 41be abc8 d63c f955 5bbe
00000310: 4400 e8bc a58a 783e a16d bd3d 5837 87be
00000320: 4991 8e3d 416e 07bd 33bf b03c 86e2 e9bd
00000330: 7a4b 11bf d748 913e beb9 9cbd 342a dfbe
00000340: b26f 853e e388 d93d 05ee 84bd 03d3 99bb
00000350: 0142 473e 8fc1 3a3d eaf5 ea3e fe57 16bd
00000360: 1d3a ddbd 95b5 9a3e 26f2 f4bd c03b c33d
00000370: 881c 383e 347b e9bd 94c0 0abe 2acf 943d
00000380: 0417 1a3f 18c1 9bbd ecbe 5cbd 8da6 243e
00000390: 35d5 41bd 1c7c 89bd 1f2b 713d 07c9 103f
000003a0: 1d26 9abd ac80 583d b35c 323e 6e63 c9bd
000003b0: 8afa 1bbe 1ebf e0bd 1f58 9d3e c54b 853d
000003c0: c107 12be 28c4 c6bd d86b 1dbe 3b60 7dbd
000003d0: e2d1 2a3e cda5 45bc 37d7 143c e43a 0cbe
000003e0: 5585 d03e 5bb3 b03d 0605 bbbd 0a7f abbe
000003f0: 1e69 f93c 0487 10be e332 d93e 43b7 873c

fc2.bias f4 [2]
-0.00084432523 -0.20548098
00000000: b555 5dba 9b69 52be
