weights/checkpoint_critic.pth (torch, 425231 bytes, 7 tensors)

fcs1.weight f4 [256, 24]
0	0xbd6340f4	-0.055481866
1	0xbd2f38c2	-0.042778738
2	0xbcf4617b	-0.029831639
3	0xbcb98dec	-0.022650681
4	0x3e08fe65	0.13378294
5	0xbd616953	-0.055032086
6	0x3cb3cb86	0.021947633
7	0xbd7aa1af	-0.06118935
8	0xba2810f1	-0.0006411216
9	0xbb977648	-0.0046222545
10	0xbb72e4f1	-0.003706273
11	0xbd8aa543	-0.067698024
12	0x3cb28833	0.02179346
13	0x3c010302	0.007874252
14	0x3ba6e629	0.005093355
15	0x3d177e78	0.036985844
16	0x3c874d47	0.01651634
17	0x3d0f4445	0.034977216
18	0x3b14ad30	0.0022686236
19	0xbcafc141	-0.021454455
20	0xbd9452e7	-0.07242375
21	0x3e7915ef	0.24324773
22	0x3bacbd7d	0.005271612
23	0xbaddf74e	-0.0016934664
24	0x39a8d5e4	0.00032202818
25	0x3d5c8152	0.053834267
26	0xbd28db4e	-0.04122477
27	0xbdf209b7	-0.11818259
28	0x3db1d213	0.086826466
29	0xbd849b0f	-0.064748876
30	0x3d362c9c	0.044476137
31	0xbdfd6820	-0.12373376
32	0x3d8a7510	0.06760609
33	0x3d2d9587	0.04237893
34	0x3b5c937a	0.0033657239
35	0x3d0e7a36	0.03478452
36	0x3d8ea683	0.06965353
37	0x3dc06161	0.093935736
38	0xbc8b6ec9	-0.0170206
39	0xbd86e12e	-0.06585918
40	0xbc1553d0	-0.009114221
41	0x3def9428	0.116981804
42	0xbd14d6c9	-0.036337648
43	0x3d80c592	0.062876835
44	0xbd933955	-0.071886696
45	0x3e275454	0.16340762
46	0x3c0fea9c	0.008783963
47	0x3ba059d8	0.0048935227
48	0x3c8ce53d	0.017199153
49	0x3c260955	0.010134061
50	0x3d294a35	0.041330535
51	0x3c06559a	0.00819912
52	0xbd28cfc9	-0.041213784
53	0x3d4253ec	0.047443315
54	0xbd2666fd	-0.04062556
55	0x3ba6ba39	0.0050881174
56	0xbce176b5	-0.027522424
57	0xbca56d2c	-0.020193659
58	0xbc3edf5c	-0.011649933
59	0xbc60b5f0	-0.013715252
60	0x3c504029	0.0127106095
61	0x3d1f149e	0.03883802
62	0xbb941e3b	-0.0045202053
63	0xbd52dd7a	-0.051480748
64	0xbcd4e13c	-0.025986306
65	0x3cf102ec	0.029420339
66	0xbd30c117	-0.043152895
67	0xbc7d1012	-0.015445726
68	0x3dad0012	0.08447279
69	0xbe5a5455	-0.21321233
70	0x3d36722f	0.044542488
71	0xbc8d698a	-0.017262239
72	0xbb3dd3cf	-0.002896536
73	0xbd9b860c	-0.07593927
74	0xb9fbb52a	-0.00048009428
75	0xb98e5e95	-0.0002715482
76	0x3dc25e5b	0.09490653
77	0xbcde7046	-0.027153146
78	0x3beeefa3	0.0072917505
79	0x3c04ce8a	0.008105883
80	0xbd276d39	-0.040875647
81	0xbdc5fcb8	-0.09667343
82	0xbc99cfa8	-0.018775776
83	0xbc970e17	-0.018439336
84	0x3cefeae5	0.029286811
85	0xbdd6b201	-0.1048317
86	0x3cb3e862	0.021961395
87	0x3d30aba9	0.043132458
88	0x3b9f6dea	0.0048653977
89	0xbc8db390	-0.017297536
90	0xbd2a7f1d	-0.04162513
91	0xbd3cb7b6	-0.046073638
92	0xbdf0eb5a	-0.1176364
93	0x3e802c67	0.25033876
94	0x3d00b240	0.031419992
95	0xbcaf42e2	-0.021394197
96	0xbcb763aa	-0.02238639
97	0x3d9c22f0	0.07623851
98	0x3b4b49d7	0.0031019354
99	0xbc8f2615	-0.017474214
100	0xbd811afd	-0.06303976
101	0x3e1f0851	0.15530516
102	0xbc0f520f	-0.008747592
103	0x3ce0ca7c	0.027440302
104	0xbc9a30c7	-0.018822087
105	0xbbec3ac9	-0.007209156
106	0xbd040f6a	-0.032241262
107	0xbbeb7126	-0.007185119
108	0x3dcd8578	0.10035223
109	0x3e2ef512	0.17085674
110	0x3d0db002	0.034591682
111	0x3ce11d24	0.027479716
112	0x3c57d0e3	0.013172361
113	0xbd37334a	-0.044726647
114	0x3c9d3912	0.019192252
115	0xba66627a	-0.0008788478
116	0x3c71b08b	0.014751564
117	0xbe939526	-0.2882473
118	0xbc3323f4	-0.010933865
119	0xbc84c288	-0.016206041
120	0xbca97670	-0.020686358
121	0x3bd8a02f	0.0066108922
122	0x3c9401d8	0.018067285
123	0xbd2a1896	-0.041527353
124	0x3dd4025d	0.10352013
125	0x3da1c976	0.07899754
126	0xbcdc3f77	-0.026885731
127	0x3c45203b	0.01203161
128	0x3c9c637a	0.019090403
129	0xbca0303e	-0.019554254
130	0x3cea6dcc	0.028616808
131	0xbc80f337	-0.015740974
132	0x3dbb9ac1	0.09160376
133	0xbe109f0a	-0.14123169
134	0xbbf90d80	-0.0076004863
135	0xbc2daa92	-0.010599749
136	0xbcba146b	-0.022714814
137	0x3cd80e4a	0.026374001
138	0xbd1818dd	-0.037133086
139	0xbc14dc3c	-0.009085711
140	0xbe0e1c17	-0.13877903
141	0xbe08a5c8	-0.1334449
142	0xbc8808bb	-0.016605726
143	0x3ba7708f	0.0051098536
144	0xbcf0382c	-0.02932366
145	0xbd0b33c8	-0.03398493
146	0x3d0a2898	0.03373012
147	0xbce74afe	-0.028234001
148	0x3cc6689e	0.024219807
149	0x3de36f6f	0.11105239
150	0xbceb40eb	-0.028717479
151	0x3c9e6a88	0.019337907
152	0xbcc20a2c	-0.023686491
153	0xbdeb98d7	-0.11503761
154	0x3bd04ee6	0.0063570617
155	0x3cc33edd	0.023833686
156	0xbced5c9b	-0.028974822
157	0x3df9d928	0.121996224
158	0xbc72bcd7	-0.014815531
159	0xbba3e7a3	-0.0050019785
160	0x3c64f5ab	0.013974587
161	0xbd68ea73	-0.056864213
162	0xbbbd17b6	-0.005770649
163	0xbd0e5efd	-0.034758557
164	0x3d1c36ad	0.03813808
165	0xbe80d1c6	-0.25160044
166	0x3c0e12c7	0.008671469
167	0x3d13fbcf	0.036128815
168	0xbc54b445	-0.012982433
169	0xbc139ecc	-0.009010028
170	0x3d1f8815	0.038948137
171	0x3cabddb3	0.020979738
172	0x3dac1459	0.084023185
173	0xbe02d048	-0.12774765
174	0x3b87d5fb	0.0041453815
175	0xbbd6e686	-0.0065582423
176	0x3d3ae486	0.045628093
177	0x3da3f42b	0.08005556
178	0xbc717d7c	-0.01473939
179	0x3dab0d7d	0.08352182
180	0xbc965568	-0.018351272
181	0xbd6eef1c	-0.0583335
182	0xbd18665f	-0.037207004
183	0x3d951052	0.072785035
184	0x3d477318	0.048693746
185	0x3d585ec6	0.052824758
186	0xbb7c028f	-0.0038453673
187	0xbd983688	-0.07432276
188	0x3d9c78a4	0.07640198
189	0x3a9aac4f	0.001180062
190	0xbc82b5ff	-0.015955923
191	0xbe0f8c3c	-0.14018339
192	0x3dab556f	0.083659045
193	0x3d9e5bbe	0.07732342
194	0x3a340789	0.0006867578
195	0xbcb7e7a6	-0.022449326
196	0xbd71aa49	-0.059000287
197	0xbd1a5596	-0.037679277
198	0xbc4a6f21	-0.012355597
199	0x3a269e0b	0.00063559477
200	0x3d0d1a1f	0.03444874
201	0xbd7b5598	-0.061360925
202	0x3c27fb5c	0.0102528
203	0xbcbafa5c	-0.022824459
204	0x3e45f593	0.1933196
205	0xbdc83a95	-0.09776799
206	0xbcaa9072	-0.02082083
207	0xbd63c59f	-0.055608388
208	0x3d9e2570	0.077219844
209	0xbc82d1b4	-0.015969135
210	0x3c8477fc	0.016170494
211	0x3c29759b	0.010342981
212	0x3e712755	0.2355016
213	0x3d946ad0	0.07246935
214	0x3c35c050	0.011093214
215	0x3d8fdf02	0.07024957
216	0x3da875a1	0.08225561
217	0xbc914175	-0.017731408
218	0xbcff1b59	-0.03114097
219	0x3cb52b70	0.02211544
220	0xbd0ab385	-0.03386261
221	0x3dbec2e9	0.0931452
222	0x3ce5a3a5	0.028032133
223	0xbc998b6c	-0.01874324
224	0x3e00cd91	0.12578417
225	0xbddd381e	-0.10801719
226	0x3cabd181	0.020973923
227	0x3b1dc6f1	0.0024074877
228	0xbda02ae4	-0.07820681
229	0x3dfef973	0.124499224
230	0xbc716c79	-0.014735335
231	0xbc76ee78	-0.015071504
232	0x3e0cda98	0.13755262
233	0xbd32dba7	-0.043666508
234	0x3d17b578	0.037038296
235	0x3d5c09e1	0.05372036
236	0xbe632890	-0.22183442
237	0xbd8adcb0	-0.06780374
238	0xbcacecb9	-0.021108972
239	0xbd5d1288	-0.05397275
240	0xbc46eb40	-0.012141049
241	0xbdaa298c	-0.08308706
242	0xbc655b6d	-0.013998848
243	0x3d04166c	0.032247946
244	0x3bd5998b	0.006518548
245	0x3ce3e097	0.027817054
246	0x3d110be3	0.035411727
247	0x3d855a26	0.06511335
248	0x3d53b0bc	0.05168222
249	0xbd93e8e7	-0.07222157
250	0xbcbc01c7	-0.022950066
251	0xbc9d98aa	-0.019237835
252	0x3db80efc	0.08987233
253	0x3dc984de	0.098397955
254	0x3a9c1573	0.0011908248
255	0xbd9defd5	-0.0771176

fcs1.bias f4 [256]
0	0xbe8cd403	-0.27505502
1	0xbe77c165	-0.24194868
2	0x3e497464	0.19673306
3	0xbd037812	-0.03209693
4	0x3e2708f8	0.16312015
5	0xbe18fa44	-0.14939219
6	0xbe216297	-0.15760265
7	0xbe183c20	-0.14866686
8	0xbd9810d1	-0.074250825
9	0xbdf137a3	-0.1177819
10	0xbe1e7255	-0.15473302
11	0xbd5f176e	-0.054465704
12	0xbd5311ca	-0.051530637
13	0xbe6bcc64	-0.23027188
14	0xba00198f	-0.0004886621
15	0xbd6ae598	-0.057347864
16	0xbdd00838	-0.101578176
17	0x3dfb78f9	0.12278933
18	0xbe54fd7c	-0.20799822
19	0xbdbced0e	-0.09224902
20	0x3df56ca3	0.119836114
21	0xbe413090	-0.18866181
22	0x3e32bda0	0.17455149
23	0x3e392de4	0.18083912
24	0xbe711736	-0.2354401
25	0x3cfd162d	0.030894363
26	0x3e29d339	0.16584481
27	0xbe2528f0	-0.16128898
28	0xbdc922cc	-0.0982109
29	0x3da4f277	0.08054059
30	0xbd6203a2	-0.055179246
31	0x3e19bf83	0.15014462
32	0x3e64661f	0.22304581
33	0x3d5b4385	0.05353119
34	0x3da950e0	0.08267379
35	0xbe63cd4d	-0.22246285
36	0xbda3dfe6	-0.080016896
37	0x3b18c216	0.0023309044
38	0x3deee6df	0.11665129
39	0xbe76292c	-0.24039143
40	0x3e4d1730	0.20028377
41	0xbd892ebc	-0.06698367
42	0x3e799c66	0.24376068
43	0xbd991025	-0.074737824
44	0xbd0d0b7a	-0.034434773
45	0xbe7011fc	-0.2344436
46	0xbdd66b62	-0.104697004
47	0xbe125b41	-0.14292623
48	0x3ae4307d	0.001740947
49	0xbce1b403	-0.027551657
50	0x3c86f817	0.01647572
51	0xbe53bd9b	-0.20677797
52	0xbdfd6e2d	-0.1237453
53	0x3ddd155b	0.10795089
54	0x3db32204	0.08746722
55	0xbe2e8387	-0.17042361
56	0xbe427816	-0.18991122
57	0x3b5d2d2a	0.0033748844
58	0xbe0a1c9c	-0.13487476
59	0x3e57cb62	0.21073678
60	0xbdbefa7b	-0.09325119
61	0x3e336817	0.17520176
62	0x3c9fac20	0.019491255
63	0xbd408d36	-0.04700967
64	0x3ea0a129	0.31372955
65	0x3d4acb7a	0.049510457
66	0x3d4ebdcc	0.050473973
67	0xbd2f042b	-0.042728584
68	0xbda0dcdf	-0.07854628
69	0x3e8eb089	0.2786906
70	0xbe8a35fc	-0.26994312
71	0x3da23e0d	0.079219915
72	0xbda00290	-0.07812989
73	0x3dbf61bb	0.093448125
74	0xbd4c5e1a	-0.04989443
75	0x3ea3716e	0.31922477
76	0xbe068f48	-0.13140595
77	0xbe22b6d6	-0.15890059
78	0xbe413504	-0.1886788
79	0x3e52eb89	0.20597662
80	0x3cf96e18	0.030448005
81	0xbe5fd049	-0.21856798
82	0xbe62f45f	-0.22163533
83	0xbe539a29	-0.20664276
84	0x3d6cad3f	0.057782408
85	0x3e8ebdde	0.27879232
86	0xbdaa3235	-0.083103575
87	0xbe07e9fd	-0.13272853
88	0x3d3225eb	0.043493193
89	0xbdb8b835	-0.0901951
90	0xbd6b00a4	-0.057373658
91	0xbe8c0892	-0.2735029
92	0x3e16238f	0.14662002
93	0x3dea2354	0.114325196
94	0x3b5b9ad5	0.0033509035
95	0x3e6be91d	0.23038144
96	0x3e47620a	0.19470993
97	0xbea1ed1a	-0.31626207
98	0xbe25a1de	-0.16175029
99	0xbe3a7097	-0.18207012
100	0xbd4734a9	-0.048634205
101	0x3e28a021	0.16467334
102	0x3d14418c	0.036195323
103	0x3da8e328	0.082464516
104	0xbe3516d1	-0.17684485
105	0xbcea4317	-0.028596444
106	0x3e204393	0.15650778
107	0x3e14424a	0.14478412
108	0xbd9ea739	-0.07746739
109	0xbe5a6483	-0.21327405
110	0xbe83fa7b	-0.2577704
111	0xbdfed259	-0.124424644
112	0xbe53faa5	-0.20701082
113	0xbddf5cd5	-0.10906378
114	0xbe53ba2d	-0.20676489
115	0x3d968394	0.07349315
116	0xbe6802c7	-0.2265731
117	0x3e2e279d	0.17007299
118	0xbd5f2532	-0.05447883
119	0xbcf307ec	-0.029666863
120	0x3c4cb14c	0.012493443
121	0xbbfefedc	-0.0077818464
122	0xbcdde8f3	-0.027088618
123	0x3e0c1118	0.13678396
124	0xbc30b28f	-0.010784759
125	0x3d3bb504	0.045826927
126	0xbd1e5d14	-0.038662985
127	0x3e1b6dd4	0.15178615
128	0x3e59ae1d	0.21257825
129	0x3e70cc06	0.23515329
130	0x3e2babd6	0.16764769
131	0x3e0919a0	0.13388681
132	0xbe7460dc	-0.23865074
133	0xbd82b645	-0.063824214
134	0xbdc87e5b	-0.097897254
135	0xbe2a4c7b	-0.16630737
136	0x3e226c06	0.1586152
137	0x3dbec153	0.093142174
138	0xbe208fa5	-0.15679796
139	0x3d8616d3	0.06547322
140	0x3ccefaf1	0.025266143
141	0x3dc86b9c	0.0978615
142	0x3ca80e25	0.020514557
143	0x3cef2726	0.029193472
144	0x3d69ebe5	0.057109732
145	0x3ec94048	0.39306855
146	0x3e030b99	0.12797393
147	0x3e27eb02	0.16398242
148	0xbd21187e	-0.03933
149	0x3e73ab0f	0.23795722
150	0x3e074040	0.13208103
151	0xbd8752ef	-0.06607615
152	0xbcd0df91	-0.02549723
153	0xbe3cbd8e	-0.18431684
154	0x3dcd3107	0.10019117
155	0x3c090de1	0.008365125
156	0xbe867b87	-0.2626612
157	0xbd611dbe	-0.054960005
158	0xbdfa23e5	-0.122138776
159	0xbe32060e	-0.17385122
160	0xbeb73699	-0.35783842
161	0xbe71d43a	-0.23616114
162	0x3db69799	0.08915634
163	0x3bc159d9	0.0059006033
164	0x3e480de3	0.19536547
165	0x3e5943f3	0.21217327
166	0x3c56097f	0.0130637875
167	0x3df050cc	0.11734161
168	0xbe60fbba	-0.21971026
169	0x3e03239f	0.12806557
170	0xbe3d228a	-0.18470207
171	0xbddcef00	-0.10787773
172	0xbe07a6ea	-0.13247266
173	0x3cd7c3f1	0.02633855
174	0x3e2cffe4	0.1689449
175	0xbdf11f2e	-0.11773525
176	0x3e0dfd76	0.13866219
177	0xbe1302d4	-0.14356548
178	0x3e1e461b	0.1545643
179	0x3e925edd	0.28588
180	0xbe69338e	-0.22773573
181	0xbd193d01	-0.037411693
182	0x3e310d54	0.1729024
183	0xbdc46f15	-0.095915
184	0xbe33cc61	-0.17558433
185	0x3d2498db	0.040184837
186	0xbe0d4b97	-0.13798366
187	0x3ccd1d76	0.025038462
188	0x3dee6ea9	0.116422005
189	0x3e1ca778	0.1529826
190	0x3deaa673	0.11457529
191	0xbe923b08	-0.28560662
192	0xbe2b5b79	-0.16734113
193	0x3c7eb624	0.015546355
194	0x3e28b1b5	0.1647404
195	0xbe66b9e4	-0.22531849
196	0xbda6595e	-0.08122514
197	0xbe4c4610	-0.19948602
198	0xbc282f5e	-0.0102651995
199	0xbdba5bee	-0.090995654
200	0x3dc44392	0.095832005
201	0xbd9a9059	-0.075470634
202	0xbda0db4c	-0.078543276
203	0xbe7cb020	-0.24676561
204	0xbe0ae409	-0.13563551
205	0xbb8a11cd	-0.004213548
206	0xbe23b6d9	-0.1598772
207	0x3ce39acd	0.027783776
208	0xbe24d0b9	-0.16095246
209	0x3d44e462	0.048069365
210	0x3dd14752	0.102186814
211	0x3d8565f1	0.065135844
212	0x3d98cfd7	0.07461517
213	0xbe4d05dc	-0.20021766
214	0xbd39fb27	-0.045405533
215	0xbdf09264	-0.11746672
216	0x3d627f9e	0.055297486
217	0xbb98c5af	-0.0046622376
218	0xbe35015a	-0.17676297
219	0x3e0eaea8	0.13933814
220	0x3dd9b523	0.10630252
221	0x3c0eddd7	0.008719883
222	0xbe711fc0	-0.23547268
223	0xbe346f9a	-0.17620698
224	0x3c9ece1e	0.019385394
225	0xbe86e7f3	-0.26348838
226	0xbe384733	-0.1799591
227	0xbe04d962	-0.1297355
228	0xbccea87e	-0.025226828
229	0xbd805a38	-0.06267208
230	0x3e2bcb47	0.16776763
231	0xbdf0ce59	-0.11758108
232	0xbaa7aac3	-0.001279198
233	0x3e89e7e6	0.26934737
234	0xbe5c4df1	-0.21514107
235	0xbe917c99	-0.28415373
236	0x3e016250	0.1263516
237	0xbdae7ccb	-0.08519896
238	0x3cae16f3	0.021251177
239	0x3e05c3d7	0.13062988
240	0x3d27a8b3	0.04093237
241	0xbe741807	-0.2383729
242	0xbd9d0669	-0.07667238
243	0xbcc9e4b1	-0.024645181
244	0x3cf43519	0.029810475
245	0xbc81c1f5	-0.015839556
246	0x3db3b0f3	0.08773985
247	0x3eaf6e03	0.3426362
248	0x3e2c0cbd	0.16801734
249	0x3e4a6d7b	0.19768326
250	0x3e13eeb0	0.14446521
251	0xbe444c4e	-0.19169733
252	0xbdc5d859	-0.09660406
253	0x3d9af947	0.07567077
254	0x3dc9bd2c	0.09850535
255	0x3e6562c6	0.2240096

fc2.weight f4 [256, 258]
0	0x3d767c7a	0.060177304
1	0x3c0c4c3f	0.0085631
2	0xbce3f49a	-0.027826596
3	0x3dc13166	0.0943325
4	0xbe1a4e97	-0.15069042
5	0xbd1f6f39	-0.03892443
6	0xbe08b559	-0.13350429
7	0x3c651e6f	0.013984307
8	0xbd9087c7	-0.070571475
9	0x3dde9c61	0.10869671
10	0xbd2ab2c0	-0.041674376
11	0xbd4123ea	-0.04715339
12	0x3cc6f5af	0.024287073
13	0xbd1ed5e8	-0.038778216
14	0xbd53624c	-0.051607415
15	0xbd6c3ebe	-0.057677023
16	0x3b2d0a3a	0.00264038
17	0xbc69826f	-0.014252289
18	0xb958539e	-0.00020630515
19	0xbc409b04	-0.011755709
20	0xb9abc185	-0.00032759845
21	0xbd8223b8	-0.06354469
22	0xbd99080e	-0.074722394
23	0x3ce3c80c	0.02780535
24	0x3d529bb5	0.051418025
25	0xbd23028f	-0.039797362
26	0x3ba0eee3	0.00491129
27	0x3ca216bf	0.019786237
28	0xbc6e3697	-0.014539382
29	0xbac6b200	-0.0015159249
30	0x3d25e07f	0.0404973
31	0xbcf554aa	-0.029947598
32	0x3cdc3b12	0.026883636
33	0xbd0ab8b0	-0.033867538
34	0xbd54f661	-0.051992778
35	0xbcc31ba0	-0.023816884
36	0x3cf96c08	0.030447021
37	0x3dc6ba10	0.09703457
38	0xbd5ca736	-0.053870402
39	0xba73cdcc	-0.00093003805
40	0x3dd0e2cd	0.10199509
41	0x3e66ddbe	0.22545525
42	0xbda55dfd	-0.080745675
43	0xbc8789d0	-0.016545206
44	0x3e2834b3	0.16426353
45	0x3d803baf	0.06261384
46	0xbd4a5d0f	-0.049405154
47	0xbc3048d5	-0.010759552
48	0xbc88e5d4	-0.016711153
49	0xbc82c75f	-0.015964208
50	0x3c0c88fe	0.008577583
51	0x3d1dea15	0.038553316
52	0xbd653eb5	-0.055968005
53	0xbd3965b9	-0.045263026
54	0x3d905f8d	0.07049475
55	0x3d405b16	0.046961866
56	0xbcee5be2	-0.029096548
57	0xbd10a00f	-0.035308894
58	0xbc5727ff	-0.013132094
59	0xbad2a9e7	-0.0016072363
60	0x3cb6de62	0.022322837
61	0x3d939dc8	0.07207829
62	0xbb9d77a0	-0.00480552
63	0x3cb9e67f	0.022692917
64	0x3da1e77a	0.07905479
65	0x3d0e5d32	0.034756847
66	0xba7f3c60	-0.00097364746
67	0x3d49e117	0.049286928
68	0x3c67bf5a	0.014144743
69	0x3c2df74e	0.010618044
70	0xbd2585fe	-0.040410988
71	0x3d9afe2a	0.07568009
72	0xbc48a4b2	-0.012246298
73	0x3d74abd4	0.05973418
74	0x3d8c6e09	0.06856925
75	0x3d44188a	0.047874965
76	0x3d1562db	0.03647123
77	0x3d3e2db5	0.04643031
78	0xbccb4dac	-0.02481731
79	0x3d07b192	0.03312833
80	0xbc0c9da3	-0.008582505
81	0x3cfc231a	0.030778456
82	0x3dd4ee17	0.103969745
83	0x3db848fd	0.089982964
84	0x3e0baacf	0.13639377
85	0xbe2e568a	-0.170252
86	0xbd995e3f	-0.07488679
87	0x3cd6bd14	0.026213206
88	0xbd607b07	-0.054804828
89	0x3bf15832	0.00736525
90	0x3d68f314	0.056872442
91	0xbc7069bb	-0.014673646
92	0x3dcc0335	0.09961549
93	0x3c83e0b5	0.01609836
94	0x3d111687	0.035421874
95	0xbb144d96	-0.0022629253
96	0x3cab2071	0.020889493
97	0x3cda3cdc	0.026640348
98	0x3d2517fb	0.040306073
99	0x3bae5e21	0.0053212796
100	0x3d0e4625	0.034734864
101	0xbcf3ef8a	-0.029777307
102	0x3d673d10	0.056454718
103	0x3d60d6d4	0.054892376
104	0x3d066fc9	0.03282145
105	0xbc8caa77	-0.017171128
106	0x3ce00ad3	0.027348911
107	0xbd42b458	-0.04753527
108	0xbd2d4a21	-0.042307023
109	0x3d9b8b63	0.07594945
110	0x3da7a92f	0.08186566
111	0x3e0867e6	0.13320884
112	0x3d2db787	0.042411353
113	0xbb973a4b	-0.0046151034
114	0x3d1840bd	0.037171114
115	0xbd34b278	-0.044115514
116	0x3d1db49a	0.038502313
117	0xbc217fd1	-0.009857134
118	0x3aa3a5f2	0.0012485369
119	0x3ca2cd41	0.019873263
120	0xbd065eb4	-0.03280516
121	0xbd3726bc	-0.044714674
122	0x3c033164	0.008007381
123	0x3da0710b	0.07834061
124	0xbd375573	-0.044759225
125	0x3d3e1dff	0.046415325
126	0x3d4dbe90	0.050230563
127	0xbd3f2710	-0.046668112
128	0x3cb49ec7	0.022048367
129	0x3dc77a32	0.09740104
130	0x3e0a141d	0.13484235
131	0xbdd63127	-0.10458594
132	0xbc4245a7	-0.011857427
133	0xbc7da7f7	-0.0154819405
134	0x3e033df2	0.12816599
135	0xbbe2df3d	-0.0069235847
136	0x3c9a7994	0.018856801
137	0xbd159b40	-0.03652501
138	0xbda564b1	-0.08075846
139	0x3df3e1f8	0.119083345
140	0xbc8521b5	-0.016251424
141	0x3cf2fd71	0.029661866
142	0x3d069669	0.032858286
143	0xbd8fff30	-0.07031095
144	0xbd174186	-0.036927722
145	0x3cbf3c5b	0.02334421
146	0x3ca9bc32	0.020719621
147	0x3daf13cb	0.08548697
148	0xbc0444f3	-0.008073079
149	0xbb2109ff	-0.0024572609
150	0x3d8c3f28	0.068479836
151	0x3cd46e9f	0.025931654
152	0x3d8e0108	0.069337904
153	0xbc87913c	-0.016548745
154	0xbd82d317	-0.063879184
155	0xbd117739	-0.03551409
156	0x3c8287f7	0.015933974
157	0x3b8186d1	0.003952839
158	0xbd983ffc	-0.07434079
159	0x3d34c515	0.044133265
160	0xbd44d094	-0.048050478
161	0x3cf64212	0.030060802
162	0x3d85411e	0.06506561
163	0xbd109480	-0.03529787
164	0xbd48323b	-0.04887603
165	0xbe4f3ac8	-0.20237267
166	0xbe23c7e1	-0.15994217
167	0xbbe0fda5	-0.0068661743
168	0x3b986659	0.0046508727
169	0x3d44f0b1	0.048081104
170	0x3c8abbb7	0.016935213
171	0xbd94cd49	-0.072657175
172	0x3cc48cf4	0.023992993
173	0xbd5edf86	-0.054412387
174	0xbbba0e73	-0.005677992
175	0xba8d8391	-0.0010796656
176	0x3aee8800	0.001819849
177	0x3c3618d6	0.01111432
178	0xbd201d3a	-0.039090373
179	0xbdc15cea	-0.0944155
180	0xbd1c997c	-0.03823231
181	0x3d9b4fa9	0.07583553
182	0x3ceee2b0	0.029160827
183	0xbd5d63c6	-0.05405023
184	0xbd6cf9e7	-0.057855513
185	0xbdce7652	-0.100811616
186	0xbc211c95	-0.009833475
187	0xbd2e92b6	-0.042620383
188	0xbca55c39	-0.020185577
189	0x3e367693	0.1781867
190	0x3d3d8718	0.046271414
191	0x3cfb8c99	0.03070669
192	0xbd837ee1	-0.064206846
193	0x3d5b541f	0.05354702
194	0xbb33e751	-0.0027451108
195	0xbd8b8340	-0.06812143
196	0x3dd1be4d	0.10241375
197	0x3b882bfb	0.0041556335
198	0x3ced1d80	0.02894473
199	0x3cb2c01a	0.021820117
200	0xbd758f7c	-0.05995129
201	0xbce22256	-0.027604263
202	0xbc90ea6b	-0.017689904
203	0xbdfc8e89	-0.12331874
204	0xbcdf1f04	-0.02723647
205	0xbc6f0074	-0.01458751
206	0xbd25b404	-0.04045488
207	0x3d3ee702	0.046607025
208	0xbae0d5ca	-0.0017153558
209	0xbd38aa6b	-0.0450844
210	0xbe07e06b	-0.13269202
211	0xbac71dd7	-0.0015191388
212	0x3d766cb2	0.060162254
213	0xbd624e16	-0.05525025
214	0x3ce7eb3b	0.028310409
215	0xbc43dd8e	-0.011954678
216	0x3db74c08	0.08950049
217	0x3d896a58	0.067097366
218	0xbd2f6a69	-0.04282609
219	0xbd6b0e7f	-0.05738687
220	0x3d41b5ef	0.047292646
221	0xbd4fc65b	-0.050726276
222	0x3c688813	0.014192599
223	0xbcec314e	-0.028832104
224	0xbdca2bef	-0.09871661
225	0x3d70d065	0.05879249
226	0xbc8793e9	-0.016550021
227	0x3c9624c2	0.018328074
228	0xbca90323	-0.020631379
229	0x3ccf4460	0.025301158
230	0xbd13a3e0	-0.036044955
231	0x3c2bd510	0.01048781
232	0x3d9061c9	0.07049901
233	0x3d67bffc	0.056579575
234	0xbd855cdd	-0.06511853
235	0xbd09c94a	-0.03363923
236	0xbc81ed7f	-0.015860317
237	0x3dea9eaf	0.11456048
238	0x3d2ad008	0.0417023
239	0x3d0e5fd7	0.03475937
240	0x3d9a4c90	0.075341344
241	0x3d240c71	0.040050928
242	0x3cfa372e	0.03054389
243	0xbc89cc39	-0.016821014
244	0x3c5b06e0	0.013368338
245	0x3cea6dda	0.028616834
246	0x3d198e3b	0.037489157
247	0xbe04457a	-0.12917128
248	0xbca3041c	-0.01989942
249	0x3dbcdca4	0.09221771
250	0x3b96973f	0.0045956667
251	0x3d1e394d	0.038628865
252	0x3d13109b	0.035904508
253	0x3c3a2ef9	0.011363738
254	0xbdd011de	-0.10159658
255	0x3e1b1543	0.1514483

fc2.bias f4 [256]
0	0xbd75bea3	-0.05999626
1	0xbd65fe9d	-0.05615102
2	0x3d9aeb01	0.07564355
3	0x3dc6bbbf	0.097037785
4	0xbd9813b7	-0.07425635
5	0xbd5fdd9c	-0.054654703
6	0x3d91d068	0.071198285
7	0xbd105a84	-0.035242572
8	0xbd937fbb	-0.07202097
9	0x3d8fae0b	0.07015618
10	0x3cc78a1b	0.024357846
11	0xbc786c93	-0.015162605
12	0xbcd7e7b8	-0.02635561
13	0xbd899616	-0.0671808
14	0x3bfda5c2	0.007740707
15	0xb80a3660	-3.2952405e-05
16	0x3d799786	0.06093552
17	0xbd3d9501	-0.04628468
18	0xbdd4001b	-0.103515826
19	0x3abbda6a	0.001433206
20	0x3d5ee7e0	0.054420352
21	0xbd2564f7	-0.04037949
22	0x3d4752c3	0.048662912
23	0x3c7abe81	0.015304209
24	0x3be12447	0.0068707797
25	0xbdecba34	-0.11558953
26	0xbd5b74fc	-0.053578362
27	0xbdc6583a	-0.09684797
28	0x3d823c19	0.06359119
29	0xbde219eb	-0.110401
30	0xbe185ca5	-0.14879091
31	0x3da5099f	0.08058476
32	0xbb38cc0f	-0.00281978
33	0xbdbaaefd	-0.091154076
34	0xbdbd8ac3	-0.09254982
35	0xbd415c0d	-0.047206927
36	0x3d815bd7	0.06316345
37	0x3d0fd4fb	0.035115223
38	0xbdbbdf99	-0.09173507
39	0x3bba23ce	0.005680538
40	0x3d95b4e2	0.07309891
41	0xbd1f45c8	-0.038884908
42	0xbc40f511	-0.011777178
43	0x3d93c456	0.072151825
44	0x3da663f7	0.081245355
45	0x3dc3c62d	0.095592834
46	0xbd523ea8	-0.051329285
47	0x3d840a73	0.064473055
48	0xbde4e04b	-0.11175593
49	0xbbb33d92	-0.0054699862
50	0xbb395b8a	-0.0028283321
51	0x3c48eba8	0.012263216
52	0xbdceacd0	-0.10091555
53	0xbc1aa868	-0.009439565
54	0x3d18cdd1	0.037305657
55	0xbdc448ab	-0.09584173
56	0xbe1be4fd	-0.15224071
57	0xbc84ba47	-0.016202105
58	0x3dd3622c	0.10321459
59	0xbd28283d	-0.041054
60	0xbcd58567	-0.026064588
61	0x3c26e843	0.010187211
62	0x3c63c869	0.013902762
63	0x3db74a76	0.08949749
64	0x3d047ed8	0.03234753
65	0x3dc9fb76	0.098624155
66	0xbbf5ad47	-0.007497463
67	0xbdbd78a1	-0.09251524
68	0xbdb38a7a	-0.08766647
69	0xbb7865f3	-0.0037902563
70	0x3bac6a75	0.005261714
71	0x3d0c97c4	0.034324422
72	0xbe3d5611	-0.18489863
73	0xbbfe76b1	-0.007765614
74	0xbe0b8ca1	-0.13627864
75	0xbcff515a	-0.031166721
76	0xbe61a2e4	-0.22034794
77	0x3bb50db0	0.0055253133
78	0xbd95496e	-0.07289396
79	0xbc7cd116	-0.015430709
80	0x3e3656dd	0.17806573
81	0x3e270b49	0.16312899
82	0x3c807d8d	0.015684867
83	0xbd455b6c	-0.04818289
84	0x3cde6c8a	0.027151365
85	0x3d4b3f27	0.049620774
86	0xbcf26e79	-0.029593693
87	0x3c9b7a8c	0.018979333
88	0x3d67bde5	0.056577582
89	0xbdd2870d	-0.10279665
90	0xbdf126c2	-0.117749706
91	0xbd770dc5	-0.060315866
92	0x3d1f42da	0.038882114
93	0xbd630e7c	-0.055433735
94	0xbd186ea5	-0.037214894
95	0xbcbd84e8	-0.023134664
96	0x3cb343ee	0.021882977
97	0x3d7a2021	0.061065797
98	0x3cdb9638	0.026805028
99	0xbde53ac0	-0.11192846
100	0x39aefe93	0.0003337754
101	0xbdc27d51	-0.094965585
102	0xbd9338bf	-0.07188558
103	0xbde68d6e	-0.11257444
104	0xbc23e867	-0.0100041395
105	0xbdc4cb34	-0.096090704
106	0x3d5ee679	0.054419015
107	0x3d2e495e	0.042550437
108	0xbcf7adc9	-0.030234234
109	0xbcded42c	-0.02720078
110	0x3dad31ec	0.084567875
111	0x3c6f4487	0.014603741
112	0x3b5fd93f	0.0034156588
113	0x3d4747ea	0.048652567
114	0x3c90ede7	0.017691566
115	0x3d071d10	0.0329867
116	0x3d919fa1	0.07110525
117	0x3d9ee79d	0.077590205
118	0xbb5a9b75	-0.003335682
119	0xbcc696ff	-0.024241922
120	0x3d5cf42d	0.0539438
121	0x3d362729	0.04447094
122	0xbd427f06	-0.04748442
123	0xbda38cee	-0.079858646
124	0xbdb72954	-0.089434296
125	0x3d4d8ad5	0.05018123
126	0xbc202eb8	-0.009776764
127	0x3d685c1c	0.056728467
128	0xbd68ba99	-0.05681858
129	0x3cbebe3a	0.023284066
130	0x3ce667e0	0.028125703
131	0x3c3f79ed	0.011686784
132	0x3acc7d25	0.0015601261
133	0xbdf2f019	-0.11862201
134	0xbd697c60	-0.05700338
135	0xbd626ede	-0.055281512
136	0x3d291ae8	0.041285425
137	0x3d896abf	0.06709813
138	0xbcbea73e	-0.023273107
139	0x3e0c2301	0.13685228
140	0x3d141c15	0.036159594
141	0x3c8fa207	0.017533315
142	0xbc48c77f	-0.012254595
143	0xbcecfb19	-0.028928326
144	0x3df58e1f	0.11989998
145	0xbcfc3399	-0.030786322
146	0x3d15c195	0.036561567
147	0xbd3a997e	-0.045556538
148	0x3c9ee15f	0.019394575
149	0x3e1474b9	0.14497651
150	0x3d29f477	0.041492905
151	0xbac6058c	-0.0015107854
152	0x3ced4998	0.028965756
153	0xbcb4e049	-0.022079604
154	0x3d198fe2	0.037490733
155	0xbbad4fb3	-0.005289042
156	0x3ca7d2fa	0.020486344
157	0x3e27216a	0.1632134
158	0xbded9198	-0.116000354
159	0xbd8431b0	-0.0645479
160	0x3d2b339e	0.041797273
161	0x3ca6eef6	0.020377617
162	0x3d7315ac	0.05934684
163	0xbc6f034c	-0.014588188
164	0x3e466098	0.19372785
165	0xbc9d8e55	-0.019232908
166	0xbd1abb6a	-0.03777639
167	0x3e0968aa	0.13418832
168	0xbd212075	-0.039337594
169	0x3def3c57	0.11681431
170	0x3cb2a260	0.021805942
171	0xbc098b4a	-0.0083950255
172	0x3c0f79e0	0.008757085
173	0xbd88eced	-0.06685815
174	0xbde42664	-0.11140135
175	0xbe0aa904	-0.13541037
176	0x392e52cb	0.00016624776
177	0xbdf21a61	-0.118214376
178	0xbcade947	-0.0212294
179	0xbe01ccbb	-0.12675755
180	0x3d889956	0.066698715
181	0xbd6ba659	-0.05753169
182	0xbd112abd	-0.03544115
183	0x3db8df87	0.090270095
184	0x3c96092e	0.018314924
185	0xbccf3db4	-0.025297977
186	0xbdcb4904	-0.09926036
187	0xbc3f9a68	-0.011694528
188	0xbd453c44	-0.048153177
189	0x3dbd7b81	0.09252072
190	0xbcad98dd	-0.021191055
191	0x3d3bb5ed	0.045827795
192	0x3cdefb7f	0.027219532
193	0xbda31b6f	-0.07964217
194	0xbcb719fa	-0.022351254
195	0x3ada2ec7	0.0016646021
196	0x3da83f53	0.08215203
197	0xbd026964	-0.03183879
198	0x3e28fb2c	0.16502064
199	0x3ab96f8e	0.0014147626
200	0xbd022ecb	-0.031782907
201	0xbe4278dd	-0.18991418
202	0x3e118397	0.14210354
203	0x3d8da8a4	0.06916931
204	0x3bcf88a7	0.006333429
205	0xbdfd65b1	-0.12372912
206	0xbc8e1b8c	-0.01734712
207	0x3b80c5fa	0.0039298506
208	0xbe00afc3	-0.12567048
209	0x3cff2bd8	0.031148836
210	0xbe293c90	-0.16527009
211	0x3d9c401c	0.076294154
212	0x3c2c182b	0.010503809
213	0x3d317b94	0.043330744
214	0xbdcb1b69	-0.099173374
215	0x3c9fbc37	0.019498928
216	0xbd6ba961	-0.05753458
217	0xbdcb4125	-0.09924535
218	0x39bfd215	0.00036586882
219	0xbd95ac14	-0.07308212
220	0x3c45a9f2	0.012064444
221	0x3df94c0b	0.12172707
222	0xbcc5e6d8	-0.024157926
223	0xbd0e7b3b	-0.03478549
224	0x3d76ba55	0.060236294
225	0xbd41b07a	-0.04728744
226	0xbd9d1e7d	-0.07671831
227	0x3c6693ee	0.014073355
228	0x3ce6f6dc	0.028193884
229	0x3d06bfee	0.032897882
230	0xbc63eedb	-0.013911928
231	0xbb8b6485	-0.004253926
232	0x3dc0c9b7	0.09413474
233	0xbd27d970	-0.04097885
234	0x3d83b7eb	0.06431564
235	0xbd7612e9	-0.060076628
236	0xbd837153	-0.06418099
237	0xbd9ec76a	-0.07752879
238	0x3c399103	0.011326077
239	0x3d17b43e	0.037037127
240	0xbda2749d	-0.079323985
241	0xbc05c5de	-0.008164851
242	0xbdce2fc9	-0.10067708
243	0xbd461834	-0.048362926
244	0x3bae136c	0.005312374
245	0xbdde1433	-0.108436964
246	0x3d06ad0c	0.032879874
247	0xbd2b01e9	-0.04174987
248	0xbd671fa5	-0.056426663
249	0xbd504ffc	-0.05085753
250	0xbd8e79b8	-0.0695681
251	0x3dac039c	0.08399126
252	0xbd5c1109	-0.053727183
253	0xbd873b36	-0.066030905
254	0x3d662841	0.056190733
255	0x3b0d6941	0.0021577629

fc3.weight f4 [128, 256]
0	0x3cad5f59	0.02116363
1	0x3d71c581	0.059026245
2	0x3c984197	0.018585963
3	0x3ba031d3	0.004888752
4	0x3d5eb13a	0.054368235
5	0x3df23fb2	0.11828555
6	0xbd164dfb	-0.03669546
7	0x3ca98cb8	0.020696983
8	0x3ceb5aac	0.02872976
9	0xbdae0c71	-0.08498467
10	0xbd88da00	-0.06682205
11	0x3d5bbc02	0.053646095
12	0xbbfb9429	-0.007677574
13	0x3d7a434e	0.061099343
14	0xbd8dff8c	-0.06933507
15	0xbdbf0092	-0.09326281
16	0x3cc10403	0.023561483
17	0x3cbf5164	0.02335424
18	0x3bf44d5e	0.007455512
19	0x3cff01a7	0.031128718
20	0xbd309c14	-0.043117598
21	0x3c7574d0	0.014981464
22	0xbd34ac8b	-0.044109862
23	0x3c09548b	0.008381973
24	0x3c19c9b2	0.009386467
25	0xbca8487a	-0.020542372
26	0x3d53e600	0.051733017
27	0x3db0b64d	0.08628521
28	0x3d9a7e3c	0.075436085
29	0xbdfe922b	-0.12430223
30	0x3b9136bd	0.004431574
31	0xbc8ae015	-0.016952554
32	0xbcba035e	-0.022706684
33	0x3d072585	0.032994766
34	0xbd90c3e8	-0.07068616
35	0x3cd50654	0.026003994
36	0x3d90c5ab	0.07068952
37	0xbe84cbe9	-0.2593682
38	0x3d3a6169	0.045503054
39	0xbdccf77e	-0.10008143
40	0xbdda6cb1	-0.106652625
41	0x3dc377a2	0.095443025
42	0x3da130bc	0.078706235
43	0x3d5673e5	0.05235662
44	0x3d0e9ad1	0.034815613
45	0xbc2084da	-0.009797299
46	0xbb7ed6ce	-0.0038885358
47	0x3d2cf5a2	0.04222644
48	0xbd5bea8f	-0.05369049
49	0xbd812a79	-0.06306929
50	0xbcb16b8e	-0.021657731
51	0x3d073560	0.033009887
52	0x3da8e9a5	0.08247689
53	0xbdf3bbd7	-0.11901062
54	0xbdad3e9d	-0.08459208
55	0x3bf63415	0.007513533
56	0xbd0e784b	-0.03478269
57	0xbe0014db	-0.12507956
58	0xbdb07d74	-0.08617678
59	0xbe8f78ec	-0.28021944
60	0xba6198b7	-0.0008605825
61	0x3c7867b4	0.0151614435
62	0x3d70eca2	0.05881942
63	0xbd414657	-0.047186222
64	0x3d059cff	0.032620426
65	0xbc730341	-0.014832319
66	0x3dd80442	0.10547687
67	0xbd5f5a71	-0.05452961
68	0xbc93163f	-0.017954944
69	0xbce29d0a	-0.027662773
70	0x3e6f190a	0.23349395
71	0xbcd2d397	-0.02573566
72	0xbd3734d2	-0.044728108
73	0xbd75d9bf	-0.060022112
74	0x3d355e37	0.044279303
75	0xbd373b04	-0.044734016
76	0xbdf79f10	-0.12090886
77	0xba2c1f3b	-0.0006565933
78	0xbcaa0706	-0.020755302
79	0xbdbec9a1	-0.093158014
80	0xbd0017c8	-0.03127268
81	0x3b5ab813	0.0033373877
82	0xbdcce951	-0.10005439
83	0xbcfbf7d7	-0.030757828
84	0xbcc98add	-0.024602348
85	0x3dfffbc5	0.12499193
86	0x3de0e8b4	0.109818846
87	0xbddbe18b	-0.10736378
88	0x3cbbfeea	0.022948701
89	0x3cb1b8c1	0.021694543
90	0x3dd4c4db	0.1038911
91	0xbc4554b7	-0.012044123
92	0xbd9f629b	-0.077824794
93	0x3df84222	0.12121989
94	0x3d87391c	0.066026896
95	0x3cbe28a4	0.023212738
96	0x3bdefa12	0.006804713
97	0xbc9945ed	-0.018710101
98	0x3da79376	0.08182423
99	0xbe16ea57	-0.14737831
100	0xbd6d6484	-0.057957187
101	0xbeab64b5	-0.3347527
102	0x3da932bd	0.08261631
103	0x3d221384	0.039569393
104	0x3d247f1a	0.040160276
105	0xbc964a0a	-0.018345851
106	0xbda413ac	-0.080115646
107	0xbd171def	-0.03689378
108	0xbdb077ec	-0.08616623
109	0xbd6e52b2	-0.058184333
110	0xbb54d428	-0.0032475088
111	0x3d7744e6	0.06036844
112	0xbc35137e	-0.011052011
113	0xbd568764	-0.052375212
114	0xbd331c1f	-0.04372799
115	0xbd8edbaf	-0.06975495
116	0x3d62838f	0.055301245
117	0x3d99eb3a	0.07515569
118	0xbf00db71	-0.5033484
119	0x3d84c56c	0.06482968
120	0x3d227006	0.039657615
121	0x3dd8e519	0.10590572
122	0xbde14cd9	-0.11000986
123	0x3b021200	0.0019847155
124	0xbd39e891	-0.04538781
125	0x3dc6243b	0.09674879
126	0xbd8452ab	-0.0646108
127	0x3db5ced8	0.08877343
128	0x3cb7dd97	0.02244453
129	0xbcf323d6	-0.029680174
130	0x3d01e946	0.031716608
131	0x3ceb8f45	0.02875484
132	0xbd896fed	-0.06710801
133	0xbcdaa65b	-0.026690653
134	0xbd0cbb9e	-0.034358613
135	0x3ceb4a56	0.02872197
136	0xbbe5b569	-0.007010151
137	0x3d2dc44f	0.042423543
138	0x3c928ad2	0.01788846
139	0x3d29303d	0.04130577
140	0xbdcdf74a	-0.10056932
141	0xbe0e17d9	-0.13876285
142	0xbd7f653d	-0.062352408
143	0x3cde51b6	0.027138572
144	0xbd9b49ce	-0.075824365
145	0xbc04ed08	-0.008113153
146	0x3d25fc3b	0.04052375
147	0x3c325247	0.010883874
148	0x3d359cc0	0.04433894
149	0xbd50efe3	-0.051010024
150	0x3c22e0ba	0.009941274
151	0x3d9e39e8	0.077258885
152	0xbe0b44b5	-0.13600428
153	0xbce9dd96	-0.028548043
154	0xbd437eb1	-0.047728244
155	0xbdd36c4d	-0.10323391
156	0xbccf8138	-0.025330171
157	0x3ce50d2a	0.027960379
158	0x3b9b1355	0.004732529
159	0x3d3fecbb	0.046856623
160	0xbe2659ef	-0.16245244
161	0xbda4ccdd	-0.08046887
162	0x3ca48816	0.020084422
163	0x3d24bf68	0.0402216
164	0x3d5fb7c2	0.054618604
165	0x3e09c6df	0.1345477
166	0xbc8a4276	-0.016877394
167	0xbab6344e	-0.0013901086
168	0x3c59b046	0.013286656
169	0x3d73141d	0.059345353
170	0xbe8de9b3	-0.2771736
171	0x3c78f27c	0.0151945315
172	0xbc363066	-0.0111199375
173	0x3d226bfb	0.03965376
174	0x3b6d6479	0.0036223216
175	0x3cc1db26	0.023664068
176	0xbdca8908	-0.09889418
177	0x3b775c42	0.00377442
178	0x3d05eda7	0.032697346
179	0xbe0d7cf5	-0.13817199
180	0xbde6266b	-0.112377964
181	0x3a456564	0.0007530062
182	0x3e01b4cc	0.12666625
183	0xbbc9f46b	-0.00616317
184	0xbb64f5ca	-0.003493654
185	0xbc86e937	-0.016468627
186	0x3daaff75	0.08349506
187	0xbd9c518b	-0.076327406
188	0x3d1c7c10	0.038204253
189	0xbbbbbc39	-0.005729225
190	0x3d6b433c	0.057437167
191	0x3c92be08	0.01791288
192	0x3cc0db4a	0.023542065
193	0xbe828f59	-0.2549999
194	0x3d874e9f	0.06606793
195	0x3da77152	0.08175911
196	0x3cf2578c	0.029582761
197	0x3d8e154a	0.06937654
198	0xbc874331	-0.016511532
199	0xbd5081a8	-0.0509049
200	0x3cd2460e	0.02566817
201	0x3d86e636	0.06586878
202	0xbdcc98dd	-0.09990094
203	0xbd202073	-0.039093446
204	0x3d3d319e	0.046189897
205	0x3d6bc700	0.057562828
206	0x3c4cb5e8	0.012494542
207	0x3d821a1b	0.063526355
208	0xbe3b12bd	-0.18268867
209	0xbc525344	-0.012837235
210	0xbd48a24c	-0.048982903
211	0x3d3977d3	0.04528029
212	0xbd510e32	-0.05103893
213	0xbcb0db4a	-0.02158894
214	0xbce35d7a	-0.027754534
215	0x3de991fe	0.11404799
216	0xbe13fe26	-0.14452419
217	0xbd35cbb8	-0.044383734
218	0xbdf4995a	-0.11943312
219	0x3caa60da	0.020798136
220	0x3d97bacd	0.07408676
221	0x3d210b9f	0.039317723
222	0x3b900067	0.004394579
223	0xbdca0ff5	-0.09866325
224	0x3de466e5	0.11152438
225	0xbf181737	-0.59410423
226	0x3d876a07	0.0661202
227	0xbd0efdd5	-0.03491004
228	0xbc39a7bc	-0.011331495
229	0x3d9e8ece	0.077420816
230	0x3ca7a4df	0.020464359
231	0x3da2e882	0.079545036
232	0xbba233f7	-0.0049500423
233	0xbbb85aaa	-0.0056260424
234	0x3e3cea9c	0.18448871
235	0x38e35ba2	0.000108412714
236	0xbe119c31	-0.14219739
237	0xbda831c3	-0.08212616
238	0xbdd2b8a3	-0.10289123
239	0x3c68605c	0.01418313
240	0xbc972e91	-0.018454822
241	0x3d3cad8b	0.04606394
242	0xbca64648	-0.020297185
243	0x3d5ab8ad	0.053398777
244	0x3d96fa23	0.073719285
245	0x3dc33d8d	0.09533224
246	0xbdd5cc39	-0.10439343
247	0x3ce688cc	0.028141402
248	0x3c05e870	0.008173093
249	0x3caa60c8	0.020798102
250	0xbdc2e9e9	-0.09517271
251	0x3dd4f87f	0.10398959
252	0xbe0631a6	-0.13104877
253	0xbda5d9f3	-0.08098211
254	0xbdb088b3	-0.08619823
255	0x3db32d8a	0.0874892

fc3.bias f4 [128]
0	0x3cfa6048	0.030563489
1	0x3be5cf81	0.007013262
2	0x3e301451	0.1719525
3	0xbdd45b42	-0.103689685
4	0xbd76ee77	-0.06028601
5	0x3d064b65	0.032786746
6	0xbdd0e9c1	-0.10200835
7	0xbdd58ef1	-0.104276545
8	0xbd483cfc	-0.048886284
9	0x3d2c8a7c	0.042124256
10	0xbb8a473d	-0.004219918
11	0x3e2d230c	0.169079
12	0xbcb257f4	-0.021770455
13	0xbad0dfbd	-0.001593582
14	0x3e46a23f	0.1939783
15	0x3da35ddb	0.07976886
16	0x3d79c08b	0.06097464
17	0x3d8acfb7	0.067779
18	0x3c441b08	0.011969335
19	0x3d121d15	0.035672266
20	0xbc30a5e3	-0.010781738
21	0x3d013f8c	0.031554744
22	0x3da7ef3a	0.08199926
23	0xbd7e33e0	-0.06206119
24	0xbde2eff9	-0.110809274
25	0x3d5924c3	0.053013574
26	0xbd896a9e	-0.06709789
27	0xbdabe63f	-0.08393525
28	0x3da57825	0.080795564
29	0x3df40d74	0.119166285
30	0x3cf71a44	0.030163892
31	0xbd1eb426	-0.03874602
32	0x3b7355f3	0.0037130087
33	0x3e0a8ca8	0.13530219
34	0xbbff345a	-0.007788223
35	0xbc9d78fb	-0.019222727
36	0xbb896298	-0.0041926615
37	0x3d00d27d	0.031450737
38	0x3dea47e1	0.11439491
39	0x3d882488	0.06647593
40	0xbe1fd666	-0.1560913
41	0x3e042630	0.12905192
42	0x3daa5196	0.083163425
43	0x3d790c33	0.06080265
44	0x3d8d676f	0.06904494
45	0x3d932e17	0.07186525
46	0x3e452265	0.19251402
47	0x3e2c0a68	0.16800845
48	0x3dca1f7c	0.098692864
49	0x3dc526b1	0.096265204
50	0x3d48a1e6	0.048982523
51	0x3d859626	0.06522779
52	0xbdcc1d4f	-0.09966528
53	0xbd18ef49	-0.037337575
54	0x3e0e9f69	0.13927998
55	0xbd265a35	-0.040613372
56	0x3e15c35d	0.14625306
57	0x3e29505c	0.16534561
58	0xbd4e148a	-0.050312556
59	0x3e3804fa	0.17970648
60	0xbc868c04	-0.016424187
61	0xbd599bdd	-0.05312716
62	0x3dd440bd	0.1036391
63	0xbe061d2e	-0.13097069
64	0x3d7c1a4b	0.061548512
65	0xbcfd0181	-0.030884506
66	0xbd78038c	-0.060550258
67	0xbdf44d3e	-0.11928795
68	0x3af14cd6	0.001840974
69	0xbe06f76e	-0.13180324
70	0xbbcf6d20	-0.0063301474
71	0xbc79a419	-0.015236878
72	0x3d393186	0.045213245
73	0x3e18c92d	0.14920492
74	0x3d1d9d8d	0.03848033
75	0x3d255f14	0.040373877
76	0xbd996fde	-0.0749204
77	0x3e2adafa	0.16685095
78	0x3ce19399	0.0275362
79	0x3ce4a401	0.027910234
80	0xbbda3ce0	-0.006660089
81	0x3deb78f7	0.114976816
82	0x3cde2f2d	0.027122105
83	0x3dd1c6be	0.10242985
84	0x3da84905	0.08217052
85	0xbdd6a712	-0.10481085
86	0xbcc365cb	-0.02385225
87	0xbca19a07	-0.019726766
88	0x3db2af07	0.0872479
89	0xbde1c596	-0.11024015
90	0x3d7724e2	0.06033791
91	0x3d391232	0.045183368
92	0x3d7d9f0d	0.06191926
93	0x3dd28287	0.10278802
94	0x3c8de64e	0.017321732
95	0x3db25f8a	0.08709629
96	0xbdd003c3	-0.101569675
97	0x3d93ea8c	0.07222471
98	0x3daa5c62	0.08318402
99	0x3db317ee	0.087447986
100	0x3da03164	0.078219205
101	0xbda23043	-0.079193614
102	0xbd05a2e7	-0.03262606
103	0x3c7c0f86	0.01538456
104	0x3d30f901	0.04320622
105	0xbcbedd3b	-0.02329885
106	0x3de4d1a2	0.11172797
107	0x3cf5d2d1	0.030007752
108	0xbe0178e3	-0.12643771
109	0xbd658c0f	-0.056041773
110	0xbc29d1f9	-0.010365003
111	0xbdc32508	-0.095285475
112	0xbdab0277	-0.083500795
113	0x3ccbfe3b	0.0249015
114	0x3d983032	0.074310675
115	0x3d90e859	0.07075567
116	0x3c92bb74	0.01791165
117	0xbda2fe71	-0.07958687
118	0x3e0cc2a5	0.13746126
119	0x3d341514	0.043965414
120	0xbe23cbad	-0.15995665
121	0x3dab43d4	0.083625466
122	0x3de0f201	0.109836586
123	0x3ddab4f7	0.106790476
124	0x3dcd1655	0.10014025
125	0x3d87f5ba	0.066386655
126	0x3d9bd43c	0.0760884
127	0x3d7d893b	0.06189845

fc4.weight f4 [1, 128]
0	0x3d469bf4	0.048488572
1	0x3d83a1a2	0.064273134
2	0x3d15e97e	0.03659963
3	0xbdb6bfa2	-0.0892327
4	0xbdfdc159	-0.12390394
5	0xbd4bdb0e	-0.049769454
6	0x3dbd68ba	0.09248491
7	0xbd5f5de3	-0.054532897
8	0xbd5ed44e	-0.05440169
9	0x3d928d2a	0.07155831
10	0x3e37f3b3	0.17964058
11	0x3d3bf787	0.045890357
12	0x3e2087a1	0.15676738
13	0xbe86e538	-0.26346755
14	0x3c961a69	0.01832314
15	0x3dab177a	0.08354087
16	0x3cfa6324	0.030564852
17	0x3d8c270a	0.068433836
18	0x3e0ae9a0	0.13565683
19	0xbd5de105	-0.054169673
20	0x3d7242c5	0.059145708
21	0x3e135531	0.14387967
22	0x3d09dccc	0.033657834
23	0xbd41292e	-0.047158413
24	0xbd86c2d6	-0.06580131
25	0xbdac1bd3	-0.084037445
26	0xbd85afef	-0.06527697
27	0x3d4d5aec	0.050135538
28	0x3d0f338d	0.034961272
29	0x3c5c00c3	0.013427916
30	0x3c6af5d4	0.014340837
31	0x3d5d1ebd	0.053984392
32	0xbda6a55f	-0.08137011
33	0x3cdbbe88	0.02682425
34	0xbdcc12b7	-0.09964507
35	0x3db5e87d	0.08882234
36	0x3de435a8	0.111430466
37	0xbdb75fc3	-0.08953812
38	0x3d1c3da6	0.03814473
39	0xbd5b5723	-0.053549897
40	0xbe096f24	-0.13421303
41	0x3d09efb5	0.033675868
42	0xbe4d3557	-0.20039879
43	0x3cdf864e	0.027285721
44	0xbdc87d10	-0.09789479
45	0x3df4dd96	0.11956327
46	0x3cc1b43d	0.023645515
47	0x3d8029d8	0.06257981
48	0x3d025e4a	0.031828202
49	0x3d192bf1	0.03739542
50	0x3d828351	0.06372703
51	0x3db194ff	0.08670997
52	0xbe22fac0	-0.15915966
53	0xbd046961	-0.03232706
54	0x3cc1a5d4	0.023638643
55	0xbd8f6531	-0.070017226
56	0x3cdb562a	0.026774485
57	0x3d127a34	0.035761073
58	0x3df79f2b	0.12090906
59	0x3d2bdf31	0.0419609
60	0x3e0ce15e	0.13757846
61	0xbd88d61f	-0.06681465
62	0x3de40a30	0.111347556
63	0xbe55fe2a	-0.20897737
64	0x3de9d2f2	0.11417188
65	0x3d9c1c9b	0.076226436
66	0xbd89a216	-0.067203686
67	0xbd91014a	-0.07080324
68	0x3d2713d8	0.04079041
69	0xbe1afda1	-0.15135814
70	0x3db31ded	0.08745942
71	0xbd9b5f5f	-0.0758655
72	0xbe2ff5cf	-0.17183612
73	0x3dab13d8	0.08353394
74	0x3dea216c	0.11432156
75	0x3d7be3a5	0.061496396
76	0xbe4747aa	-0.19460931
77	0x3d45e5b3	0.04831476
78	0xbd8a3c09	-0.06749732
79	0xbdc60594	-0.09669033
80	0x3e023202	0.12714389
81	0x3ccec0f7	0.025238497
82	0x3dfdcbb3	0.12392368
83	0x3b92ab2b	0.004475971
84	0x3e4304e8	0.1904484
85	0xbd7eff93	-0.062255453
86	0x3e042acf	0.12906955
87	0xbe5ca17f	-0.21545981
88	0x3d5c972e	0.053855114
89	0xbe067d3e	-0.13133714
90	0x3d3033e6	0.043018244
91	0x3ddd234f	0.1079775
92	0x3d8e570a	0.06950195
93	0x3d62fc6e	0.055416517
94	0x3d0d3273	0.03447194
95	0x3d8f336e	0.06992231
96	0xbd8d6949	-0.06904847
97	0x3d445faa	0.047942795
98	0x3e48d3a7	0.19611989
99	0x3d363338	0.04448244
100	0x3d3486c8	0.04407385
101	0x3e0116fd	0.12606426
102	0xbdf26700	-0.11836052
103	0x3d4fddb8	0.050748557
104	0x3d7dc32d	0.061953712
105	0xbd80c813	-0.06288161
106	0x3cf8f2ed	0.030389274
107	0x3dee05d0	0.116222024
108	0xbe4048d7	-0.18777786
109	0xbd456460	-0.04819143
110	0xbea20526	-0.31644553
111	0xbd9b50f2	-0.075837985
112	0xbe40e8e2	-0.18838838
113	0x3d63653c	0.055516466
114	0x3d82ef4a	0.06393297
115	0x3d059fa3	0.032622945
116	0x3da7d02f	0.08194005
117	0xbde0bb89	-0.109732695
118	0x3caef569	0.021357255
119	0xbd6a93ea	-0.057269968
120	0xbe5c2bee	-0.21501133
121	0x3d363f97	0.044494238
122	0x3d00b928	0.03142658
123	0x3d3e14ab	0.04640643
124	0x3e0917e9	0.13388027
125	0x3d922ecb	0.07137831
126	0x3cc8d143	0.024513846
127	0x3e335207	0.1751176
